ML/PythonToC++/models/net.pt (torch, 108922 bytes, 3 tensors)

weight f4 [256, 100]
0.027972333 0.09208717 0.041696154 0.067509614 -0.054765083 0.04534138 0.025377847 -0.055271126
-0.028408244 -0.09853152 -0.08670714 0.021072432 -0.07470667 -0.06425426 -0.0873523 -0.03567843
0.04898625 -0.0061443597 0.044055216 0.060231544 -0.05962484 0.097758554 0.00496684 -0.018902756
0.09462761 0.0745345 0.0708695 0.012243107 0.04728002 -0.053179014 -0.034378126 -0.075503744
0.0040332675 -0.009947419 -0.09360947 0.02834522 -0.0964342 0.047789402 -0.019482538 0.02898068
-0.011820033 -0.0030097365 0.08614776 -0.07975253 0.0886826 0.083830036 -0.07316609 0.09045995
0.09008 -0.0018935353 -0.05366185 -0.08580568 0.048906453 0.016035661 -0.010546103 -0.08240192
-0.09409106 0.08622741 0.04059007 -0.06302194 -0.053740133 0.059073396 0.0026173368 -0.030324183
-0.049439322 -0.038589396 -0.022714652 -0.06361107 0.09326964 -0.014492691 0.07040668 -0.01187934
-0.05766679 0.07691314 0.027673207 0.07813076 -0.0153713 -0.0015670434 0.03147293 0.012984574
-0.099305175 0.071195774 0.025756203 -0.09557819 -0.09879948 -0.026709653 0.04487116 -0.0070165023
0.09174038 -0.0024284348 -0.09677162 -0.0692189 0.02091682 0.047412418 0.083559535 -0.05924052
0.08390159 -0.08599484 0.018994294 0.07448975 0.08062624 -0.062271595 -0.04457438 -0.047806825
-0.08937377 0.021635339 -0.019569144 -0.00062954426 -0.015100382 -0.0017471164 -0.08625225 -0.015301406
-0.035428144 0.07900485 0.01828643 -0.06871668 -0.030306123 -0.04438895 0.0423745 -0.014634028
0.02832874 0.05687768 -0.061164796 0.053392507 0.0010984167 -0.029319748 -0.06336299 -0.025621548
-0.01906848 0.07069949 -0.028611228 0.08605147 0.02610644 0.049907573 -0.08905448 0.07445165
-0.024658896 0.03655345 -0.020401917 0.07642528 -0.085287906 0.09191013 0.085318886 0.082109965
0.05828356 0.08918428 0.007667586 -0.09795123 -0.0558985 -0.034543052 0.07939238 0.033343665
-0.046648063 -0.005671248 -0.020613387 -0.00038461387 0.07182527 -0.043116104 0.06616337 0.03470785
-0.056449722 -0.007877313 -0.07980152 -0.02264645 -0.09678844 0.01498574 -0.064358726 0.08171501
-0.05108259 -0.019031242 0.03005486 0.08484309 0.06308084 0.08852347 0.044817574 -0.045619037
-0.05705718 -0.08478129 -0.08029421 0.04674489 -0.07126039 0.07485966 -0.0025913715 0.0848962
-0.0034991056 0.0069293156 -0.038901817 0.08539689 0.047415085 -0.08301798 -0.05277071 0.099377416
0.035432212 -0.0984465 0.08173793 0.08245372 0.07742631 -0.01662825 -0.032003798 0.027914055
0.024351299 0.022408321 0.08373288 0.03872604 -0.0027140975 -0.058025982 -0.0901641 0.049983032
-0.021619104 -0.02223251 0.015790328 -0.000481382 -0.020592846 -0.027640916 0.08194513 0.0150488615
0.038434364 0.019591525 -0.007499978 0.045355044 -0.031215109 -0.07300429 -0.021571174 -0.063228115
-0.04721233 -0.07970617 -0.007066451 0.061155148 -0.09804225 0.017686151 -0.04421989 0.06786447
-0.098857954 0.07982547 -0.030259825 0.06323988 -0.04501107 -0.02488301 -0.028391764 0.074345656
0.048151992 0.07244841 -0.017178915 -0.048346557 0.06929005 0.050769724 -0.0028534532 -0.020146646
-0.048810888 -0.09039252 0.038796254 -0.06360519 0.062324353 0.06653542 -0.07383768 -0.0333518
00000000: 3c26 e53c 3398 bc3d 96c9 2a3d 7b42 8a3d
00000010: 5a51 60bd e2b7 393d 34e5 cf3c fa63 62bd
00000020: 68b8 e8bc e5ca c9bd 8393 b1bd 18a0 ac3c
00000030: d0ff 98bd bd97 83bd c3e5 b2bd 8c23 12bd
00000040: cea5 483d a056 c9bb 3e73 343d 5ab5 763d
00000050: 2d39 74bd a335 c83d e0c0 a23b f4d9 9abc
00000060: 1fcc c13d 8ba5 983d 0724 913d 5097 483c
00000070: b2a8 413d 3dd2 59bd 14d0 0cbd b5a1 9abd
00000080: 8029 843b 80fa 22bc 52b6 bfbd 3c34 e83c
00000090: 4b7f c5bd d2be 433d d899 9fbc e468 ed3c
000000a0: d0a8 41bc 003f 45bb 3d6e b03d 4b55 a3bd
000000b0: 399f b53d 15af ab3d 1ad8 95bd 1143 b93d
000000c0: dd7b b83d 8030 f8ba 87cc 5bbd e3ba afbd
000000d0: 2252 483d 385d 833c 90c9 2cbc 56c2 a8bd
000000e0: d0b2 c0bd ff97 b03d c641 263d a611 81bd
000000f0: 9d1e 5cbd f2f6 713d a087 2b3b 6c6a f8bc
00000100: e380 4abd ea0f 1ebd 1414 babc 8546 82bd
00000110: 2704 bf3d c072 6dbc 6131 903d 90a1 42bc
00000120: 0334 6cbd a384 9d3d ecb2 e23c 0503 a03d
00000130: e8d7 7bbc 4065 cdba c2e9 003d 40bd 543c
00000140: 8360 cbbd 17cf 913d acfe d23c 80be c3bd
00000150: 6257 cabd 34ce dabc d2ca 373d b0ea e5bb
00000160: 61e2 bb3d 6026 1fbb 3330 c6bd a3c2 8dbd
00000170: c059 ab3c 8633 423d 4321 ab3d 30a6 72bd
00000180: 99d4 ab3d 101e b0bd ec99 9b3c 158e 983d
00000190: 5f1f a53d 8010 7fbd a093 36bd 17d1 43bd
000001a0: 9809 b7bd 983c b13c 784f a0bc 0008 25ba
000001b0: 9867 77bc 80ff e4ba 05a5 b0bd c0b2 7abc
000001c0: 1a1d 11bd 4bcd a13d 6ccd 953c 55bb 8cbd
000001d0: 8c44 f8bc 30d1 35bd e290 2d3d 90c3 6fbc
000001e0: ac11 e83c 92f8 683d f087 7abd 1ab2 5a3d
000001f0: c0f8 8f3a f82f f0bc 75c4 81bd 48e4 d1bc
00000200: 8035 9cbc e5ca 903d 1862 eabc c13b b03d
00000210: 2cdd d53c e26b 4c3d 3262 b6bd 1b7a 983d
00000220: 7401 cabc 12b9 153d ec21 a7bc db84 9c3d
00000230: 6dab aebd 613b bc3d abbb ae3d 4529 a83d
00000240: beba 6e3d 3fa6 b63d 6040 fb3b a89a c8bd
00000250: d3f5 64bd 047d 0dbd 7998 a23d 5e93 083d
00000260: 0a12 3fbd e0d5 b9bb 68dd a8bc 00a6 c9b9
00000270: 2119 933d 839a 30bd a980 873d d229 0e3d
00000280: d337 67bd d80f 01bc fb6e a3bd 0c85 b9bc
00000290: 0539 c6bd c086 753c 82ce 83bd 335a a73d
000002a0: fa3b 51bd 68e7 9bbc 9c35 f63c 37c2 ad3d
000002b0: 8730 813d cb4b b53d a292 373d 07db 3abd
000002c0: cab4 69bd d0a1 adbd 4a71 a4bd 9277 3f3d
000002d0: f8f0 91bd 0550 993d 00d4 29bb 0fde ad3d
000002e0: 4051 65bb 500f e33b 8357 1fbd 91e4 ae3d
000002f0: 5236 423d 5505 aabd 1a26 58bd 6386 cb3d
00000300: 5e21 113d 529e c9bd 3766 a73d 7fdd a83d
00000310: af91 9e3d f837 88bc 6a16 03bd 04ac e43c
00000320: 607c c73c a891 b73c 257c ab3d 329f 1e3d
00000330: 00df 31bb a7ac 6dbd f5a7 b8bd 02bb 4c3d
00000340: 8c1a b1bc f420 b6bc b85a 813c 0062 fcb9
00000350: 54b2 a8bc 346f e2bc d9d2 a73d 808f 763c
00000360: 5a6d 1d3d 687e a03c 60c2 f5bb 36c6 393d
00000370: d4b6 ffbc 4683 95bd 08b6 b0bc be7d 81bd
00000380: b761 41bd fd3c a3bd b08d e7bb d27d 7a3d
00000390: 60ca c8bd 8ce2 903c ea1f 35bd 87fc 8a3d
000003a0: 0a76 cabd 897b a33d 74e3 f7bc e983 813d
000003b0: 875d 38bd 74d7 cbbc d895 e8bc 8942 983d
000003c0: 063b 453d d55f 943d ccba 8cbc 0a07 46bd
000003d0: f1e7 8d3d eaf3 4f3d 0001 3bbb 940a a5bc
000003e0: eded 47bd b71f b9bd d2e8 1e3d 7043 82bd
000003f0: d247 7f3d b943 883d 3638 97bd e69b 08bd

bias f4 [256]
0.026417099 -0.036468886 0.085493885 0.07463356 0.0870058 -0.05350231 0.024351373 -0.0967225
0.07220823 -0.084947124 0.023770176 0.05892078 0.03026671 -0.05583402 0.05034489 -0.0018676072
0.06851072 0.063633926 -0.054021467 -0.07011803 0.08654193 -0.056068268 -0.069486976 -0.02107916
-0.018756196 -0.059712376 -0.035466015 -0.06309781 -0.05654458 0.023904778 0.054799862 -0.06854974
0.020098448 -0.09702965 0.040220626 -0.0014862046 -0.071939334 0.007982254 -0.06517893 0.04315243
-0.009930395 0.012434766 -0.07340664 0.058053114 -0.09792602 0.028905742 0.07399181 -0.052353825
0.0941985 0.07433564 -0.058862653 0.030466624 0.051742084 0.014404632 0.043482922 0.060611732
0.028368123 0.057280995 0.095965095 0.030948378 0.089143105 0.06974911 0.093078844 -0.0923137
0.057232402 -0.050812542 -0.04480512 0.07033209 0.006793238 -0.055340208 0.007676922 0.03596566
0.060054563 0.08014805 -0.026843205 0.066047214 -0.011200391 0.021627344 -0.09719554 0.016253792
-0.06659268 -0.022247136 -0.086842 0.007227458 -0.06756036 0.0533986 -0.022860192 -0.029783562
-0.06515573 -0.0326341 -0.087187484 -0.06944785 -0.001012966 0.023001395 0.046385653 -0.044479873
-0.08474827 -0.065385506 -0.0111692995 0.06297269 -0.08374368 -0.082716264 -0.030891374 0.07403191
0.03896392 0.08206368 0.059708588 -0.045378994 0.0615677 -0.027039453 -0.00205978 0.07139657
-0.0049803704 0.09220507 -0.023070037 0.037094735 0.0655574 0.015001617 0.060959823 0.01812315
-0.04358952 0.06251385 -0.00013113022 0.017372772 -0.023077287 0.00061991066 -0.04724417 -0.05806135
0.061245464 -0.020508528 -0.013474643 0.032737218 -0.08582391 0.090990014 0.07050469 0.059163295
0.05652926 0.058321185 0.05328787 0.08036821 -0.061154723 0.08142727 0.00020840019 0.01387988
0.075553276 0.01069995 0.08017176 0.038289554 0.020486578 0.08906344 -0.030013725 0.07078565
-0.08437853 0.0016630888 -0.078008376 0.09037686 -0.07909665 -0.05217972 0.06332376 -0.03533405
0.0745346 -0.034025848 -0.079299055 -0.038536347 -0.043465532 0.017893314 -0.09873445 0.0023863316
0.08154371 0.007576406 0.0014180914 0.055598967 0.006919086 0.036187 0.003777489 -0.0052234083
0.096838705 0.047631092 -0.00933446 0.0057821125 0.08119973 -0.05327834 0.08211545 -0.04379176
0.0506816 -0.034202352 -0.093825124 0.0020900741 0.066980444 -0.06534515 -0.07432002 -0.08054695
0.05089619 0.042391844 0.0384231 0.0971073 -0.041370608 0.031549044 -0.08902061 0.09157645
0.01638724 -0.016047515 -0.013348177 0.068563275 -0.028378978 0.030789338 -0.08154078 -0.03378024
-0.0065706745 -0.060612738 0.022823319 -0.081703104 -0.076658666 0.048978396 0.019135758 0.043118916
-0.065600134 0.069718726 -0.08731045 -0.050908316 -0.093088806 -0.090315916 -0.06038567 -0.050804652
0.049960785 -0.06037072 -0.08198333 0.03846074 0.017109133 -0.023122549 0.007817365 -0.057201743
-0.0798011 0.042814218 -0.06995533 -0.048803784 0.00020079315 0.013692245 0.022568502 -0.040055215
-0.07252773 0.08697798 0.012898639 -0.050471712 0.0047331676 0.07095926 -0.041997146 0.07588745
-0.093314745 0.07359577 -0.06199802 -0.03023988 -0.08805497 0.026427977 0.07644708 -0.04101628
00000000: ac68 d83c 6660 15bd 6b17 af3d 7bd9 983d
00000010: 1930 b23d 3d25 5bbd 887c c73c 7216 c6bd
00000020: e9e1 933d c2f8 adbd acb9 c23c ea56 713d
00000030: e4f1 f73c 37b2 64bd 7236 4e3d 80ca f4ba
00000040: 594f 8c3d 8152 823d 9d45 5dbd 0b9a 8fbd
00000050: e53c b13d d7a7 65bd 304f 8ebd 34ae acbc
00000060: 98a6 99bc f794 74bd d044 11bd 6d39 81bd
00000070: 4a9b 67bd f4d3 c33c d275 603d ce63 8cbd
00000080: 80a5 a43c 7bb7 c6bd 62be 243d c0cc c2ba
00000090: ee54 93bd 00c8 023c 887c 85bd 9ac0 303d
000000a0: 18b3 22bc 30bb 4b3c 3856 96bd 1ac9 6d3d
000000b0: 708d c8bd bccb ec3c 0589 973d f770 56bd
000000c0: 25eb c03d 493d 983d f719 71bd 2495 f93c
000000d0: 82ef 533d 6801 6c3c 261b 323d 0244 783d
000000e0: 4464 e83c 7a9f 6a3d 5989 c43d 7487 fd3c
000000f0: a990 b63d 9fd8 8e3d 1fa0 be3d f70e bdbd
00000100: 866c 6a3d d020 50bd 9385 37bd 450a 903d
00000110: d099 de3b 6aac 62bd b08e fb3b ba50 133d
00000120: c6fb 753d a924 a43d 48e6 dbbc c343 873d
00000130: d881 37bc d42b b13c 750e c7bd ac26 853c
00000140: be61 88bd a03f b6bc 38da b1bd 50d4 ec3b
00000150: 165d 8abd 7eb8 5a3d 4c45 bbbc a8fc f3bc
00000160: 5e70 85bd 56ab 05bd 5a8f b2bd ad3a 8ebd
00000170: 80c5 84ba 6c6d bc3c e2fe 3d3d 8730 36bd
00000180: 8090 adbd d6e8 85bd 70ff 36bc d3f7 803d
00000190: ce81 abbd 2567 a9bd e80f fdbc 0b9e 973d
000001a0: a298 1f3d 0111 a83d fe90 743d 53df 39bd
000001b0: 6a2e 7c3d d881 ddbc 60fd 06bb 5d38 923d
000001c0: 6032 a3bb 03d6 bc3d 60fd bcbc a6f0 173d
000001d0: f542 863d 58c9 753c 02b1 793d 0077 943c
000001e0: ed8a 32bd 4307 803d 0080 09b9 5851 8e3c
000001f0: 940c bdbc 8081 223a 1a83 41bd bdd1 6dbd
00000200: 86dc 7a3d 8001 a8bc c0c4 5cbc 7617 063d
00000210: 72c4 afbd f958 ba3d c364 903d 3655 723d
00000220: 3a8b 673d 32e2 6e3d 6244 5a3d 1798 a43d
00000230: 607d 7abd 57c3 a63d 0086 5a39 7068 633c
00000240: adbb 9a3d d84e 2f3c 1731 a43d 82d5 1c3d
00000250: 78d3 a73c e566 b63d 58df f5bc 11f8 903d
00000260: a7ce acbd 00fc d93a dbc2 9fbd 8117 b93d
00000270: 6dfd a1bd 67ba 55bd e3af 813d 70ba 10bd
00000280: 99a5 983d b05e 0bbd 8b67 a2bd 4ad8 1dbd
00000290: ea08 32bd 0095 923c 4a35 cabd 0064 1c3b
000002a0: 6300 a73d 8043 f83b 40df b93a bebb 633d
000002b0: 80b9 e23b d238 143d c08f 773b 2029 abbb
000002c0: 5f53 c63d d218 433d 90ef 18bc e077 bd3b
000002d0: 0b4c a63d 633a 5abd 252c a83d fd5e 33bd
000002e0: 8297 4f3d c417 0cbd 6327 c0bd a0f9 083b
000002f0: 0b2d 893d aed3 85bd 1835 98bd cdf5 a4bd
00000300: 8678 503d 12a3 2d3d 8a61 1d3d 31e0 c63d
00000310: 3a74 29bd 9239 013d 7050 b6bd 6f8c bb3d
00000320: 883e 863c 1476 83bc 50b2 5abc e76a 8c3d
00000330: 087b e8bc ec39 fc3c dafe a6bd 265d 0abd
00000340: d04e d7bb 1045 78bd f8f7 ba3c f553 a7bd
00000350: 38ff 9cbd 929d 483d 98c2 9c3c 769d 303d
00000360: 5d59 86bd b1c8 8e3d d2cf b2bd 3d85 50bd
00000370: 58a5 bebd 8df7 b8bd f756 77bd 8a18 50bd
00000380: aea3 4c3d 4a47 77bd e0e6 a7bd 0289 1d3d
00000390: 7428 8c3c 806b bdbc 6814 003c 604c 6abd
000003a0: c26e a3bd f65d 2f3d bd44 8fbd 7ae6 47bd
000003b0: 008c 5239 7055 603c 94e1 b83c f010 24bd
000003c0: 6b89 94bd 8321 b23d d054 533c 6dbb 4ebd
000003d0: b018 9b3b 1753 913d 3305 2cbd e16a 9b3d
000003e0: cd1b bfbd 61b9 963d a3f1 7dbd a0b9 f7bc
000003f0: 2a56 b4bd 7c7f d83c 4990 9c3d b000 28bd

weight f4 [1, 256]
-0.05092731 0.023619786 0.0024326965 0.05938916 0.056516923 0.015711896 0.026113138 0.035364397
0.059549257 0.059680536 0.039279565 -0.014742702 -0.056758024 -0.0031377152 0.045724496 -0.04638628
0.008958265 -0.0033805072 -0.04673948 0.0078547895 0.025925532 0.016698912 0.047931857 -0.051097237
0.026406482 -0.00029506534 -0.035624936 0.044703692 -0.034824185 -0.03982596 -0.041133054 0.054963447
0.04701774 0.02091878 0.001632303 -0.02586124 -0.010470547 0.010517612 0.023339108 -0.04350792
-0.041172117 -0.062151626 -0.018591098 -0.057041727 -0.043385 -0.012310892 0.04659535 -0.017887264
-0.05302096 -0.03212346 -0.023008488 0.034829795 0.034255333 0.04108636 -0.027804665 -0.031637922
0.042054318 0.056098647 0.047066882 -0.05748952 -0.034671992 -0.010120146 0.04785084 0.014802262
0.0003751889 -0.024462484 -0.036132194 0.053961523 0.02503711 0.00251925 -0.0349589 0.0037798733
0.023349732 -0.01799959 0.024842069 -0.01495643 -0.056814015 0.0019398108 0.019487798 0.05811634
0.017751887 0.040835455 0.027425855 0.007440217 -0.058504216 0.054122113 -0.027977057 0.0008696392
0.029936537 0.03908751 -0.04202269 -0.061189406 -0.015536711 -0.025960013 0.055906557 -0.014894947
-0.0011246726 -0.05161871 -0.03555222 -0.041167147 0.014043391 -0.009954788 0.039051637 -0.05463905
-0.029178843 -0.035190463 0.0014408901 -0.0123396665 0.004937127 0.020795725 0.05003366 -0.008286834
-0.038819917 -0.061633736 0.021367505 -0.022096239 0.02946107 0.048473746 -0.050523274 -0.027807236
-0.039340556 -0.053699233 -0.037947975 0.013065785 -0.01049301 0.056665577 0.017914794 -0.052735716
0.030377686 0.057966277 0.048501134 -0.02706378 0.023596302 0.033231772 -0.061962306 -0.018918924
0.027598508 -0.03833347 0.006167434 -0.04129917 -0.034842737 0.019643128 -0.021457717 -0.03347659
-0.002652146 0.0446309 -0.04396545 -0.009175949 -0.038443126 -0.058547087 0.016378395 -0.041781716
0.036893114 0.058629394 0.0030198097 0.014459938 -0.032356225 -0.026272215 0.03468716 0.025922753
-0.043637633 0.02395726 -0.056743287 0.06051878 0.050199233 -0.01594033 -0.015177824 0.040406056
-0.0349371 -0.01387082 0.005329475 -0.047406293 -0.058343776 0.0032670498 -0.021245815 0.039172515
-0.020265393 -0.04985962 0.0059291646 -0.060505085 -0.010753408 0.0419109 0.04879284 -0.035978533
-0.05095855 0.0180723 0.009845845 -0.015342079 -0.05967263 -0.032099523 -0.03077498 0.032987922
-0.00063141435 -0.030662075 -0.04579866 0.06076654 0.012006305 -0.007305093 -0.008849464 -0.0529086
0.016480118 -0.014997974 -0.04423941 -0.014937453 0.009871714 0.049495578 0.03815511 0.049986772
0.010287136 -0.013327263 0.04079345 -0.048573382 0.04200829 0.025431603 -0.0030255467 -0.03254368
-0.04275176 0.011978537 -0.030329674 0.060025647 0.047951877 -0.024469964 -0.04429341 -0.03571467
-0.033184454 0.03425207 -0.018220149 -0.024307303 -0.00035025924 -0.04798592 0.058312863 0.025923692
-0.030486017 -0.0071812347 -0.058574185 0.025950275 0.015199177 -0.041454554 -0.038120702 0.039922774
-0.015488237 0.0119635165 -0.0027286038 0.003349714 0.024986424 -0.024383418 -0.010659374 -0.03876459
-0.049477488 -0.057118095 -0.019364715 0.040672928 0.03438074 0.040823497 0.044384845 -0.01306162
00000000: 2899 50bd 487e c13c e06d 1f3b 0c42 733d
00000010: 4a7e 673d 3cb6 803c 38eb d53c 42da 103d
00000020: ece9 733d 9473 743d 9ce3 203d 608b 71bc
00000030: 1a7b 68bd 20a2 4dbb 9c49 3b3d 8aff 3dbd
00000040: b0c5 123c 808b 5dbb e671 3fbd 60b1 003c
00000050: c861 d43c 28cc 883c 3254 443d 564b 51bd
00000060: 6852 d83c 00b3 9ab9 74eb 11bd 381b 373d
00000070: cea3 0ebd 8c20 23bd 227b 28bd 5a21 613d
00000080: ac95 403d dc5d ab3c 00f3 d53a f4da d3bc
00000090: a88c 2bbc 1052 2c3c a831 bf3c 5c35 32bd
000000a0: 18a4 28bd b492 7ebd 5c4c 98bc 96a4 69bd
000000b0: 78b4 31bd a0b3 49bc c4da 3e3d 5088 92bc
000000c0: 822c 59bd e493 03bd 4c7c bcbc b0a9 0e3d
000000d0: 524f 0c3d 2c4a 283d 9cc6 e3bc c496 01bd
000000e0: 2641 2c3d b2c7 653d 34c9 403d 227a 6bbd
000000f0: 3804 0ebd f8ce 25bc 3eff 433d 3085 723c
00000100: 00b5 c439 8c65 c8bc 5aff 13bd c206 5d3d
00000110: a01a cd3c 001a 253b 1031 0fbd c0b7 773b
00000120: f047 bf3c e073 93bc 9881 cb3c d00b 75bc
00000130: d0b5 68bd 4041 fe3a e0a4 9f3c 660b 6e3d
00000140: 686c 913c 1443 273d 30ac e03c 10cd f33b
00000150: 1ea2 6fbd 26af 5d3d 2430 e5bc 80f8 633a
00000160: 783d f53c 3a1a 203d fc1f 2cbd bea1 7abd
00000170: b08d 7ebc 18aa d4bc 46fe 643d f009 74bc
00000180: c069 93ba 246e 53bd 349f 11bd e29e 28bd
00000190: 4016 663c 6819 23bc 9cf4 1f3d 32cd 5fbd
000001a0: 7808 efbc e023 10bd 40dc bc3a 502c 4abc
000001b0: a0c7 a13b cc5b aa3c 18f0 4c3d 80c5 07bc
000001c0: a201 1fbd a873 7cbd e80a af3c 2c03 b5bc
000001d0: 5858 f13c 688c 463d 7ef1 4ebd 00cc e3bc
000001e0: 9023 21bd baf3 5bbd 566f 1bbd e011 563c
000001f0: e0ea 2bbc 2a1a 683d 0cc2 923c 6801 58bd
00000200: a0da f83c 0c6e 6d3d 20a9 463d dcb4 ddbc
00000210: 084d c13c 0a1e 083d 30cc 7dbd dcfb 9abc
00000220: 4416 e23c 8e03 1dbd 3018 ca3b 5229 29bd
00000230: 42b7 0ebd a0ea a03c 18c8 afbc c01e 09bd
00000240: a0cf 2dbb e4ce 363d 1e15 34bd b856 16bc
00000250: 8a76 1dbd 12cf 6fbd fc2b 863c 4e23 2bbd
00000260: 3c1d 173d 6025 703d 00e8 453b 60e9 6c3c
00000270: f687 04bd d438 d7bc 2014 0e3d f45b d43c
00000280: 60bd 32bd 0442 c43c a66b 68bd 8ae2 773d
00000290: b69d 4d3d 4c95 82bc 68ac 78bc d280 253d
000002a0: 341a 0fbd 7042 63bc e0a2 ae3b 1a2d 42bd
000002b0: e2f9 6ebd 001c 563b b40b aebc 5c73 203d
000002c0: 9c03 a6bc 9a39 4cbd 7049 c23b 2ed4 77bd
000002d0: 102f 30bc c4aa 2b3d 00db 473d 3a5e 13bd
000002e0: eab9 50bd 5c0c 943c 7850 213c 585d 7bbc
000002f0: 4a6b 74bd ca7a 03bd d01b fcbc 581e 073d
00000300: 8085 25ba 082f fbbc 6097 3bbd 56e6 783d
00000310: 18b6 443c 905f efbb 58fd 10bc b0b6 58bd
00000320: 5001 873c 10ba 75bc 6234 35bd 38bc 74bc
00000330: f8bc 213c e0bb 4a3d 8848 1c3d eebe 4c3d
00000340: 608b 283c 985a 5abc 0817 273d e2f4 46bd
00000350: e210 2c3d f055 d03c 4048 46bb 864c 05bd
00000360: 781c 2fbd a041 443c f075 f8bc 74dd 753d
00000370: 3069 443d 3c75 c8bc 026d 35bd 8c49 12bd
00000380: 6cec 07bd e64b 0c3d 6c42 95bc 1c20 c7bc
00000390: 00a3 b7b9 e28c 44bd 78d9 6e3d ec5d d43c
000003a0: d0bd f9bc 9050 ebbb 7ceb 6fbd ac95 d43c
000003b0: f805 793c 40cc 29bd 7424 1cbd 1086 233d
000003c0: 60c2 7dbc a002 443c 60d2 32bb e086 5b3b
000003d0: 54b0 cc3c bcbf c7bc a8a4 2ebc 9ec7 1ebd
000003e0: e8a8 4abd aaf4 69bd c0a2 9ebc a898 263d
000003f0: d2d2 0c3d 8a36 273d e2cc 353d 6800 56bc
